iOvcar_Izidor/Assets/OvcarNNModels/iOvcarML.onnx (onnx, 914248 bytes, 8 tensors)

distribution.branches.0.bias f4 [4]
000000 f5 de 4d 3d 59 d9 6c bc 60 91 c0 bc a1 7e 03 bd
       0.050261457 -0.014456117 -0.02350682 -0.032103185

distribution.branches.0.weight f4 [4, 256]
000000 e8 77 81 3c a4 0f fc bc 2e 7f 6c 3d ea 3e c5 bb
       0.015804246 -0.030769177 0.057738476 -0.006019463
000010 80 fb 8b bc 18 2d 14 3d 76 4c 59 bb 8d 0f 9a bc
       -0.017087698 0.036175817 -0.0033157147 -0.018806243
000020 05 97 0c bc 65 58 04 bd 66 cb cf bc 00 81 1f bd
       -0.008580928 -0.032310862 -0.025365543 -0.038941383
000030 0b d1 35 3c d9 94 c8 3c b3 d5 8c 3c 01 0a 4f 3d
       0.011097203 0.024485039 0.017191743 0.05054665
000040 81 fd 62 3c fe 36 24 bd 98 c4 ba 3b 71 6f 3a bd
       0.013854385 -0.040091507 0.0056997053 -0.045516435
000050 2e 8a b3 3c 37 65 35 bd 8a 07 5a 3c e1 9e 8e bc
       0.021916475 -0.04428598 0.0133074615 -0.017409744
000060 6a 76 d2 bb 7a f9 d9 bc 50 81 58 bd e3 44 02 bd
       -0.0064228075 -0.026608218 -0.052857697 -0.031803977
000070 d2 11 5d 3d 3e 88 97 3d 09 cf 93 3c f0 03 76 bd
       0.053972073 0.07399033 0.018043058 -0.06006235
000080 4d d4 04 3c 46 cc 4a bd 18 de c2 3a 12 1e 5f bc
       0.008107257 -0.049511217 0.0014867214 -0.013618009
000090 0b b8 50 bd c3 6c 76 bc 31 ea 05 bd 0c 7d 34 bd
       -0.050956767 -0.015040579 -0.032694045 -0.044064566
0000a0 86 30 30 3c 40 ee 23 bb dc 1f a9 bc 1a c8 81 bd
       0.010753756 -0.0025013834 -0.020645075 -0.063369945
0000b0 2c 68 62 bd a7 31 41 3c a4 7b d8 bc a9 d9 b0 3c
       -0.055275127 0.011791623 -0.026426144 0.021588163
0000c0 32 11 45 3d 09 70 bd bb 07 ac 40 bd 94 11 8a bc
       0.0481121 -0.005781178 -0.047039058 -0.016854085
0000d0 3e 1d 74 bb a7 2c 04 3d 0e d8 6d 3b b2 10 1f bd
       -0.0037248875 0.032269146 0.0036292109 -0.03883428
0000e0 67 14 2d bd f8 58 1b 3d 1c b3 87 3c a5 2b 29 bd
       -0.042255785 0.037926644 0.016564898 -0.04130139
0000f0 47 c1 d5 3c 66 1e ea 3b 97 03 f7 bb bf e0 a5 bc
       0.026093138 0.007144737 -0.0075382697 -0.020248769
000100 d2 c8 ae bb 42 e7 36 bd 13 14 24 3d 3b b7 cc 3c
       -0.0053339982 -0.04465414 0.040058207 0.024989715
000110 fa c8 45 3c df 32 97 bc 02 be 23 3d 7a 6b 52 3d
       0.012071842 -0.018456874 0.039976127 0.05137203
000120 a9 f0 0c bd ba cf 1e bd 2b 97 1d 3d 69 74 bb bd
       -0.0344092 -0.038772322 0.038474243 -0.09153063
000130 0c 60 0a b9 a0 5a 28 3c a2 11 50 bb b0 78 06 3c
       -0.00013196486 0.010275513 -0.0031748791 0.008207485
000140 b7 ef 0f bd b7 48 a7 bc 6e 4e a3 3a d0 d2 d8 3c
       -0.03514072 -0.020420415 0.0012459287 0.02646771
000150 66 b3 07 bb 16 93 6f bd 97 a3 98 bc 3e 7d 00 bd
       -0.0020706295 -0.05848988 -0.018632693 -0.03136944
000160 49 19 56 bd 67 25 8a bb d4 eb 1b bd d1 b6 2b bd
       -0.052270208 -0.0042158845 -0.0380667 -0.041922394
000170 cd 53 4b bd ab d0 fa 3c f7 6a d7 3c 29 6f 87 3c
       -0.049640466 0.030617079 0.026296122 0.016532497
000180 72 a7 b2 bc a6 e4 2d 3d eb a2 da 3b f2 46 3a 3c
       -0.02180836 0.042454384 0.0066722534 0.011369454
000190 b8 a6 3f bd d2 67 ca bb 8f 3a 8c bb 1a 5a 96 bd
       -0.046789855 -0.006176927 -0.0042794417 -0.07341404
0001a0 ad 47 4f bd 01 2b b9 3b 35 d0 92 3c ec a7 d0 bc
       -0.050605465 0.0056508784 0.017921546 -0.025470696
0001b0 3c bb f8 3c 8d e4 0a bd 2d 06 b9 bc a1 ae 5e bd
       0.030362718 -0.03390937 -0.022585953 -0.054365758
0001c0 00 df a2 3a f3 ee 2f 3d d9 6d a0 bc 4d ad b5 bc
       0.0012426078 0.04295249 -0.01958363 -0.022177363
0001d0 f4 4d e9 bc 05 62 53 bb 08 fb 25 bd d8 96 87 3c
       -0.028479554 -0.003225447 -0.040522605 0.01655142
0001e0 21 f9 21 3c 3b 9c 04 bd 5b 49 8d bc c3 d7 db bb
       0.009886057 -0.032375555 -0.017246893 -0.0067090704
0001f0 9d 28 33 bd 64 74 55 3c d5 ff 9d bd a7 5c 85 bd
       -0.043739904 0.013028238 -0.07714812 -0.06511813
000200 33 e6 9d 3b a1 d3 aa bc af 82 9d bb 8b d7 c8 bc
       0.0048187017 -0.020852866 -0.0048068385 -0.024516841
000210 fc f9 10 3d 9e 0f a4 3c 67 fc 18 bd 1c 1f 9a 3c
       0.035394654 0.020026978 -0.037350085 0.018813662
000220 3e a0 e4 3b 8e 4f 08 3c c5 7f ab bc 04 50 2e bd
       0.00697711 0.008319749 -0.020934949 -0.042556778
000230 77 50 3c bd a6 ae 4d bd c6 3d 00 bd 02 9c 90 bc
       -0.045975175 -0.050215386 -0.03130891 -0.017652515
000240 32 ae 0a bd 80 5c be ba ae f7 81 3a 5f 72 ed bc
       -0.03385753 -0.0014523417 0.0009915733 -0.0289852
000250 dd 54 7e 3c a1 9e 98 bc b1 fb 2c bd 75 f3 7e bd
       0.015523163 -0.018630328 -0.04223222 -0.062243897
000260 40 da c6 bc 95 eb 2e bd 51 dd 21 3d 92 fd 41 bd
       -0.024273992 -0.042705137 0.039517704 -0.047360964
000270 36 c8 ce bb f7 e2 a5 bb 17 e7 d3 bb e0 12 26 bd
       -0.006310488 -0.0050624567 -0.006466757 -0.040545344
000280 b9 16 76 3c cc 43 d7 bc ea 85 17 bd 15 93 11 bd
       0.015020066 -0.026277445 -0.036992945 -0.03554066
000290 f4 d7 7d bc a6 d1 1e bd 24 32 53 3c aa 4a 34 bd
       -0.015493382 -0.038774155 0.012890372 -0.044016518
0002a0 da a3 26 bc 83 36 5c 3b 39 92 b9 bb df a8 1f bd
       -0.010170901 0.0033601827 -0.005663183 -0.038979407
0002b0 b0 b2 a7 ba d8 28 59 bb 47 88 f5 bb aa 7f 04 3d
       -0.0012794342 -0.0033135917 -0.007493052 0.032348312
0002c0 95 90 40 3c b0 c0 0f bd 39 92 b6 3c e5 0c 1c bd
       0.011753221 -0.03509587 0.022286521 -0.038098235
0002d0 3e 8f 20 bd 2f e1 cb bc 2d f3 29 bd 51 d2 0c 3c
       -0.039199106 -0.02488765 -0.041491676 0.008595065
0002e0 c9 8d b3 ba c5 c6 e9 3a 50 02 18 bb 94 c5 16 bd
       -0.0013698871 0.0017835727 -0.0023194738 -0.03680952
0002f0 aa 8d e2 bb 35 69 9a bd 84 61 ff 39 d0 89 15 bb
       -0.0069138603 -0.07539598 0.00048710045 -0.0022817738
000300 bb 54 ba 3a 47 8c ea 3c 42 ba 09 bd f9 83 d4 bc
       0.0014215925 0.028631343 -0.033624895 -0.025941836
000310 c4 b5 7a bc 00 40 ad 3c a1 56 84 3c fa 2d c5 3c
       -0.015302125 0.021148682 0.01615459 0.024069775
000320 22 71 39 bd ff 8e 51 bc 64 fc e6 3b 91 01 ea 3c
       -0.045273907 -0.012790441 0.0070491303 0.0285652
000330 d7 cc cd 3c 99 76 12 3c d4 a0 03 bc 4d 6b 9f 3b
       0.02512209 0.008939409 -0.00803395 0.004865086
000340 84 37 16 bc 24 61 74 bd cf 0f a9 bb 95 9d 25 bd
       -0.009168509 -0.059662953 -0.0051593552 -0.040433485
000350 59 53 42 bd 79 fa 72 bd 24 48 41 bd 15 ca 20 3b
       -0.047442768 -0.0593209 -0.04718794 0.0024534513
000360 18 9a 73 3a 7b a0 2d 3b 3f 94 07 3d d0 0b 82 3c
       0.0009292676 0.002649336 0.033100363 0.015874773
000370 d5 98 3e 3d 6e 07 26 3d 51 af 5f 3c bb 21 d8 bc
       0.04653247 0.04053443 0.0136526385 -0.026383271
000380 1a 08 30 bd 18 6a 7e bd b4 c5 42 3d 3a c8 94 bd
       -0.042976476 -0.062112898 0.047551826 -0.07264753
000390 3f 68 45 3a a0 85 1b bd 18 d7 09 bc c5 50 01 bd
       0.00075304875 -0.03796923 -0.008413099 -0.03157117
0003a0 0a 74 5c bd 1b b3 e2 bc 6c 03 e8 bc 31 ab b7 3c
       -0.0538216 -0.027673295 -0.028321944 0.022420498
0003b0 1b 2c 5b bc 66 33 4a bd 8f a1 92 bc 78 67 84 bb
       -0.013377215 -0.049365424 -0.017899303 -0.0040406547
0003c0 46 8d 15 3d a5 8b b5 bc 22 18 7a 3c 37 5c c8 3b
       0.036511682 -0.022161314 0.015264543 0.0061145085
0003d0 59 bd 82 bc 72 6f c6 bc 6e 78 27 bb 75 ef 1c bc
       -0.015959429 -0.024223063 -0.002555396 -0.009578575
0003e0 e1 42 84 3c 79 17 3d bd 99 2b 3b bd eb 75 cb 3c
       0.016145172 -0.046164963 -0.045695875 0.024836501
0003f0 f7 b6 4d bd 54 be de bb 19 c8 38 bd dc 05 23 bd
       -0.050223317 -0.006797591 -0.045112703 -0.03980051

distribution.branches.1.bias f4 [7]
000000 72 43 9e 3a 42 28 9c 3c e7 db c0 bc f0 5b 85 3a
       0.0012074544 0.019062165 -0.023542358 0.0010174494
000010 10 24 95 3b b8 51 0d b8 5c 93 45 bc
       0.004551418 -3.3693126e-05 -0.012059059

distribution.branches.1.weight f4 [7, 256]
000000 0e 17 64 bb aa a0 06 b9 23 09 98 bd 9b 89 18 bb
       -0.003480378 -0.00012839088 -0.07423618 -0.0023275379
000010 d1 45 3d 3c b8 28 f3 3c 20 ca 05 3d 11 84 c9 bb
       0.01155229 0.029682502 0.032663465 -0.0061497767
000020 f7 60 63 3c 7d 68 d1 bc 04 26 87 bc 4d 53 40 bb
       0.013878099 -0.02556252 -0.01649762 -0.0029346526
000030 fb 1f 65 bd 2f e0 89 3c 98 9c 4d 3d 64 bf f2 bb
       -0.055938702 0.016830532 0.050198168 -0.0074080694
000040 1b 7b c6 3b a2 27 ab ba 40 c4 a9 b6 80 b8 83 3d
       0.006057156 -0.0013058076 -5.059439e-06 0.06431675
000050 1b 2f 38 3d 22 35 96 3b 89 29 c5 bc 28 78 27 3c
       0.0449668 0.0045839706 -0.024067657 0.010221519
000060 33 b0 92 bc d5 cc d5 bc 62 3a 4a bc da cb 3b bb
       -0.017906284 -0.026098648 -0.012343021 -0.002865544
000070 ab 51 e4 bc 16 b8 e3 3b 0f 3c db ba 03 a6 9d bc
       -0.027870974 0.006949435 -0.0016726273 -0.0192442
000080 b9 ba 78 bc ea aa fa 3b 99 0e ca bc 95 7e 13 bc
       -0.015181237 0.007649769 -0.024665164 -0.0090023475
000090 b2 1d 5a bb a2 25 85 3b 3a 06 0f bb 11 a9 96 3c
       -0.003328186 0.004063324 -0.002182378 0.018391164
0000a0 29 c4 9c bc 0f 85 34 3b 0f df a5 3c e1 93 40 3b
       -0.019136505 0.002754513 0.020247964 0.0029385018
0000b0 ba ee aa 3c b1 4c 1f 3c 8e d9 21 bb 4c f7 81 3a
       0.020865787 0.0097228745 -0.0024696323 0.0009915619
0000c0 9b b3 3e bd b3 fe 96 3c 1a e6 22 bd c1 10 fe ba
       -0.046558004 0.018431997 -0.039770223 -0.0019383655
0000d0 2b 87 60 3a f3 cb 4e bd e5 06 2e 3d c7 b0 2a bd
       0.00085650635 -0.05048747 0.042487044 -0.041672494
0000e0 1e 0a 5b bc f5 67 69 3c fe 08 14 3d e5 51 5a bb
       -0.013369111 0.014245977 0.036141388 -0.0033312973
0000f0 34 75 0b 3d be 3e 2c bc 76 80 83 3b ab c8 80 3c
       0.03404732 -0.010513006 0.0040131165 0.015720686
000100 91 55 55 3c 90 f4 bf 39 56 a4 08 3c e1 d7 e1 bc
       0.013020889 0.00036612572 0.008339962 -0.02756876
000110 e6 f6 a3 3c 21 b6 10 bc eb dc 28 bc 47 2c e8 3c
       0.020015191 -0.008832485 -0.010306577 0.028341426
000120 78 d0 83 3b 0f fa e0 bc f3 87 2e bd e2 f4 a9 bc
       0.004022654 -0.027462987 -0.04261012 -0.020746652
000130 ec 94 a4 bc a0 62 63 bb 4d 6f d8 3c e6 62 af bc
       -0.020090543 -0.0034696236 0.02642026 -0.021409463
000140 be d3 8f bb 87 e9 16 3c ba 91 07 3a 29 0e 08 3d
       -0.0043892553 0.009210951 0.0005171556 0.03321663
000150 59 9b 6b 3c b2 e1 62 bb 41 4d 89 3c 91 00 11 3c
       0.0143802995 -0.0034619388 0.01676047 0.008850233
000160 0e 76 07 bc d3 41 df bb b6 91 49 3b 23 7b 54 bc
       -0.0082678925 -0.006813267 0.0030757017 -0.012968811
000170 c5 3b 75 3c 5e ae be 3c 5c 96 02 3d cd 71 3a 3d
       0.014967863 0.023276504 0.031881675 0.045518685
000180 c9 43 15 3c 3b fa 56 3c 25 51 86 bc 78 d8 b2 3a
       0.0091103995 0.013121183 -0.016396115 0.0013644835
000190 01 dc fb 3b 14 7d 91 3c 51 e3 0e bd 90 96 cc 3c
       0.0076861386 0.017759837 -0.034884755 0.024974138
0001a0 cd fd 6e 3c 3a 7c 59 bb 88 a6 72 3d 4c 6a c1 3b
       0.014586878 -0.0033185617 0.059240848 0.005902564
0001b0 30 dd 80 bd dc 3c ff ba a2 72 d3 3b 17 32 12 bc
       -0.06292188 -0.0019473094 0.0064528743 -0.008923075
0001c0 bb e0 bd 3a e2 ca bb b8 45 91 2a bb 74 4d 09 3c
       0.001448653 -8.954645e-05 -0.0026026529 0.008380283
0001d0 80 79 1c bb a6 2e ca bb 9c a9 5b 3c 73 cb 15 bc
       -0.002387613 -0.0061701117 0.013407137 -0.009142744
0001e0 07 78 1b 3c fe 5b 83 bc 41 27 42 3a 56 a6 b1 bc
       0.009489066 -0.016035076 0.0007406362 -0.02168576
0001f0 08 1b a8 3c fe c3 b2 bb e4 a8 14 3a 37 f1 86 bc
       0.020520702 -0.005455493 0.00056709186 -0.016472442
000200 f6 49 d0 ba cd ab 5b 3c 9b 2e 03 bb 5e a1 99 3b
       -0.0015891183 0.01340766 -0.0020016793 0.004688426
000210 68 99 fc b6 50 9e a4 bb 2a ff e1 3b 1c 55 e8 bd
       -7.528044e-06 -0.005023755 0.006896873 -0.11344358
000220 0b 8b 5a bd de 5d a2 3b 08 d3 8f bc 59 7e 08 bc
       -0.053355258 0.0049550375 -0.017556682 -0.008330905
000230 bc a6 eb bb 9b d9 ca 3b ee 28 ac 3c 68 34 20 3c
       -0.007191507 0.0061904914 0.02101561 0.00977812
000240 ed 3a ab 3b 4d 75 1f 3b 49 08 8b 3c 23 f7 fc ba
       0.0052255304 0.0024331391 0.016971724 -0.0019299727
000250 28 3b 17 bd 7a 4f 17 3b 09 b6 44 bd 86 9a 3d ba
       -0.03692165 0.0023088143 -0.048025165 -0.00072328036
000260 42 7d b9 bc c8 b2 8f 3c f1 eb ac 3c 39 ae 8d bc
       -0.022642735 0.017541304 0.0211086 -0.01729499
000270 d3 5a 29 3c c1 26 84 bb 73 ee f6 3b d6 eb b9 3b
       0.010336596 -0.00403294 0.0075357496 0.005673866
000280 0c fe c5 b9 1c 5d 61 3c 4a 01 2d bd 37 86 90 bc
       -0.00037764048 0.013755109 -0.042237557 -0.017642124
000290 15 68 da bc 56 1d cf 3b a7 63 52 3c fa 67 99 bc
       -0.026660958 0.006320636 0.012841142 -0.018726338
0002a0 6b 32 eb ba ee 2d c8 bc b9 52 86 bc e7 c7 47 3d
       -0.0017944103 -0.024435963 -0.016396867 0.048774626
0002b0 f0 d3 51 3c 04 59 8c bc 9e 51 c8 bc cd 9f 15 3d
       0.0128068775 -0.01713229 -0.02445298 0.03652935
0002c0 2f 1f 37 bc f2 5e 51 3c a7 18 37 bd a9 6a 2a bc
       -0.011176868 0.012778984 -0.044701245 -0.010401406
0002d0 e3 a7 87 3c 39 d9 65 3a 75 69 a5 bc 32 c8 83 bd
       0.016559547 0.00087680254 -0.020191887 -0.064346686
0002e0 c5 f9 19 bd 69 de aa b9 48 2c c8 3c 86 03 21 bc
       -0.037591714 -0.00032590635 0.024435177 -0.0098275
0002f0 0d f5 82 3c 8a 85 02 bb b9 16 1f 3b 0e 3c e3 3b
       0.01598599 -0.0019916021 0.0024275018 0.0069346493
000300 35 a8 f6 3a e8 11 90 bd 49 1a 93 3a f5 67 54 3b
       0.001881844 -0.07034665 0.0011223044 0.0032410596
000310 47 e3 1d 3d 8f fb 7a bc fc 7a 97 3b 7f 64 64 bd
       0.038546827 -0.015318765 0.004622815 -0.055759903
000320 62 9b c2 39 59 de ae 3c f8 78 f2 3c 01 4f 11 bc
       0.00037118333 0.021346258 0.029598698 -0.008868934
000330 8e 85 a6 bc 77 e4 23 bd 58 8e ca 3c f5 32 98 3c
       -0.020327356 -0.040012803 0.024726078 0.018578986
000340 17 60 77 3c ae 90 47 bc 3d 4c e6 3c 9d a3 6d 3c
       0.015098593 -0.01218049 0.028112525 0.0145043405
000350 e2 e5 31 3b e9 5a 25 bd da 69 d4 3b 3e e1 0e 3c
       0.0027145077 -0.0403699 0.006482345 0.008720694
000360 2a 82 63 bd f4 66 cc b7 1e bc b6 bc 93 33 28 3d
       -0.055544056 -2.4366636e-05 -0.022306498 0.04106481
000370 14 0f a9 bc 79 2d 53 3d bb 33 c4 3b 88 a5 57 3c
       -0.020637073 0.051557038 0.005987612 0.013162024
000380 a2 dd 5d bc ff 70 1d bc ba 59 7e 3c 7f 90 f6 bc
       -0.013541611 -0.00960946 0.015524322 -0.030098198
000390 7f b9 b2 3c 8b 88 3b 3c d7 b0 15 3d 80 57 27 bd
       0.021816967 0.011446129 0.0365456 -0.04085493
0003a0 76 e1 88 3b 3f 77 22 bc f8 8a bd bb 9b 81 ab 3c
       0.0041772677 -0.009916126 -0.0057843886 0.020935824
0003b0 05 58 80 bc e7 15 15 3c 65 53 25 bd ea a5 59 bc
       -0.015666971 0.00909946 -0.040362734 -0.013284186
0003c0 19 49 5c bd 7c dd 20 bd e5 8d 9b bc be 75 0c bd
       -0.05378065 -0.039273724 -0.018988559 -0.034291975
0003d0 15 fc cc 3a b4 cc 94 b9 6f 0a 89 bb 2c b3 2e 3b
       0.0015639091 -0.00028381275 -0.004182152 0.0026657088
0003e0 57 10 7f bc 78 49 a6 bb 9c a0 4f 3c d8 ef 9d bc
       -0.015567861 -0.005074676 0.01267257 -0.019279405
0003f0 9f 59 8d 3c 92 eb f0 bc 65 a2 0a 3c 17 1b 8e 3c
       0.017254649 -0.029409204 0.008461569 0.017346902

network_body.linear_encoder.seq_layers.0.bias f4 [256]
000000 f8 21 ef 3a c8 8a 3f bc bd cb 75 ba c0 cc 52 bc
       0.0018244376 -0.011690803 -0.00093763677 -0.012866199
000010 ed 9c b4 bb ae d2 1f 3b f5 7b 42 bc 51 fc 07 bc
       -0.005511871 0.002438705 -0.011870374 -0.008299903
000020 a7 01 01 bc ac aa 86 3b ae 5e ad bc 86 ca 82 bb
       -0.007873929 0.004109701 -0.02116331 -0.003991428
000030 43 61 33 bc 6f cd 61 bc c8 87 38 bc 22 dc 02 3b
       -0.010948482 -0.013781889 -0.0112628415 0.0019967635
000040 66 99 3d bc 01 37 47 bc fe 13 07 bc 37 d2 d3 bb
       -0.011572218 -0.01215911 -0.008244513 -0.0064642685
000050 fc f6 38 bc 0e 7c c0 bb 78 11 e9 ba bd b5 08 bc
       -0.011289354 -0.0058741635 -0.0017781695 -0.008344111
000060 fe 3f ed bb 6b 81 72 bb ba 34 58 3b ff 95 81 bc
       -0.0072402945 -0.0037003409 0.0032990412 -0.015818594
000070 ae eb 81 bc 88 6b 4d 3b 74 cc e0 bb ad bb 97 bc
       -0.015859451 0.0031344611 -0.00686031 -0.018522108
000080 89 aa c8 bb fc d4 88 bc 8f b4 4c bc 54 0f 11 bc
       -0.006123845 -0.016703121 -0.01249422 -0.008853752
000090 56 4b 2d bc 77 be c4 bb 34 88 10 bc ad 0f f1 3b
       -0.0105770435 -0.0060041505 -0.008821536 0.007356605
0000a0 63 e6 9a ba a9 42 94 bc 9b 8e 74 3b 3c a8 d5 bb
       -0.0011817928 -0.018098192 0.0037316445 -0.0065202992
0000b0 49 f6 b9 ba 60 fa 0a bc 92 73 4d bc 6b bb 70 bc
       -0.0014187779 -0.008482546 -0.012539761 -0.014693121
0000c0 87 ee d2 bb b8 66 76 3a e0 d4 00 bc 7d af 51 3b
       -0.006437126 0.00093994616 -0.007863253 0.0031995468
0000d0 61 ea 89 bc 7d 32 7d bc 91 56 35 bb 46 f5 de 3a
       -0.016835393 -0.015453932 -0.0027670006 0.0017010353
0000e0 57 d8 17 3c 16 a3 0b bc 8f 3b a5 bb ce 12 e7 bb
       0.009267888 -0.008522769 -0.0050425003 -0.0070518022
0000f0 bd ab 74 bc d9 8c 85 bc 3d 0a b3 bb 9f 4c 45 3a
       -0.014933524 -0.016302513 -0.005463867 0.0007526371
000100 4f 6c 0e bc 7c 74 bc bc e8 b5 a8 ba 6c 0f bc 3b
       -0.008692815 -0.023004763 -0.0012871595 0.005739143
000110 c3 f7 20 bc 8f 36 99 3b 72 32 3f bc 47 97 79 3a
       -0.009824696 0.0046756933 -0.011669742 0.0009521138
000120 78 c1 01 3b 02 4f a6 bc e2 07 58 bb 1d 4e 3a bc
       0.0019799154 -0.020301346 -0.0032963683 -0.011371163
000130 95 27 b2 bc fb 15 07 bc f7 98 59 bc 25 6b 9f bb
       -0.02174739 -0.008244987 -0.013281099 -0.0048650675
000140 09 85 17 ba ca cf 46 bc 1f 61 88 bc 02 5f ea 3a
       -0.00057800167 -0.012134502 -0.016647873 0.0017881098
000150 d4 fc 34 bc cf 36 09 3c d2 e0 9c bc 34 c8 4b bc
       -0.011046607 0.008374884 -0.019150171 -0.012437869
000160 be ca 05 3a 89 f0 d9 bb bc 61 2f bc 6b 8e 9f bb
       0.00051037583 -0.0066509885 -0.010704454 -0.0048692725
000170 4d a9 e8 bb 08 28 23 bc 56 4a 11 bc dd c8 cf ba
       -0.0071002604 -0.009958275 -0.008867821 -0.0015852709
000180 ab 5f 98 3b 6d b9 a4 3b 72 40 06 bc 92 39 fc bb
       0.0046500764 0.0050269873 -0.008194076 -0.0076972926
000190 6f 8e 84 bc 93 a8 12 bc 01 32 83 bc bd 74 3e 3c
       -0.016181199 -0.008951324 -0.016015055 0.011624512
0001a0 07 72 78 bb 5b 87 9b bc 14 27 55 bc e2 cd 74 bc
       -0.0037909762 -0.018985441 -0.013009805 -0.014941664
0001b0 a7 e6 1b bc 7a a1 ea ba 98 02 13 bc ec f9 26 bc
       -0.009515441 -0.0017900907 -0.008972786 -0.010191422
0001c0 aa b5 28 3b 64 7a 22 bc 0b 45 a3 bb 11 c6 31 bc
       0.0025743046 -0.0099168755 -0.004982596 -0.010850445
0001d0 53 fc 0f 3b 2c cd 00 bc 39 73 90 bc 61 5d a9 bc
       0.0021970465 -0.007861417 -0.017633067 -0.02067441
0001e0 72 2e 3f bb 00 52 bb bb 08 70 38 3b 5e 12 f7 bb
       -0.002917197 -0.0057165623 0.0028142948 -0.0075400313
0001f0 31 91 37 3c 4a 9a 9b 3a 24 0a 3c bc 6f e1 1b bc
       0.01120405 0.0011871543 -0.011477027 -0.009514197
000200 4c 1a 85 bc 5b bd 15 bc e1 c1 1a bc cf ba 9d bc
       -0.01624789 -0.009139384 -0.009445638 -0.019254116
000210 5b 4a 26 bc a9 62 60 bc e8 cd 2f bc 13 7a 6d 3b
       -0.010149564 -0.013695397 -0.010730244 0.0036236092
000220 8c 90 84 bb e1 f9 bf bb 5a 51 5d 3c 47 dc 4a bb
       -0.0040455516 -0.0058586453 0.013508165 -0.003095405
000230 67 e7 28 bc 45 53 58 bc f2 bd 0f 3b e6 9a 67 3b
       -0.010309077 -0.013203447 0.0021933285 0.003534013
000240 2f 63 43 bc d1 86 0a bc 8a c0 cc bb 16 2f ad bc
       -0.011925503 -0.008454994 -0.0062485384 -0.021140616
000250 98 ff 8f bb aa 4f 9a bb c0 1c 9e bb 33 1d 80 bc
       -0.004394483 -0.0047092037 -0.0048252046 -0.015638923
000260 6a 05 eb bb b2 0b 48 bb 43 ac 6b bc f2 cf 9c 39
       -0.0071722763 -0.003052455 -0.014384332 0.0002990957
000270 a0 78 b8 3a b2 d3 91 3b 52 0e 22 bc 7a 5d ab bc
       0.0014074035 0.004450285 -0.00989111 -0.020918597
000280 69 c8 0f bc a9 5a dc 3b 15 50 2d ba a6 7d 81 bb
       -0.008775809 0.0067246747 -0.00066113594 -0.003951746
000290 28 2b 93 bc 87 5f de 3b 95 59 11 bc b7 5c f4 bb
       -0.017964914 0.00678629 -0.008871456 -0.0074573415
0002a0 96 e7 85 ba 3a bf 25 bc d8 e9 3c bc 01 74 da bb
       -0.0010216113 -0.010116393 -0.011530362 -0.006666661
0002b0 36 9e 27 bc e0 5f ab 3b 9b e1 b6 3b 11 db 32 39
       -0.0102305915 0.005229935 0.0055810935 0.00017057011
0002c0 a1 92 8d bb 80 f7 eb bb 96 30 3b 3b d1 95 6c bc
       -0.004320458 -0.007201135 0.0028562895 -0.014440016
0002d0 6a 30 8b 3b ef 37 37 bc d6 48 6e 3c a9 8e ac bc
       0.0042477148 -0.011182769 0.014543733 -0.02106412
0002e0 93 f4 04 bc ba 89 ff 3b 0f 4b c0 39 18 2f 85 bb
       -0.008114952 0.0077984007 0.00036677017 -0.004064452
0002f0 9f e5 5f bc 4b 53 f8 bb ef c8 ec 3b c2 f9 51 bc
       -0.013665586 -0.0075782887 0.0072261016 -0.012815895
000300 41 5b 38 bc 27 aa a0 b9 11 3a 14 bc ac 5c d9 3a
       -0.011252225 -0.00030644352 -0.009047047 0.0016583405
000310 51 d3 a3 bb ec e0 b0 3c 73 4e 27 bc dd 97 6c bb
       -0.004999556 0.021591626 -0.010211575 -0.003610126
000320 33 cd 02 bc 6a 8d 26 bc 5f f8 8d 3a ac 3f 5a bc
       -0.007983494 -0.010165552 0.0010831467 -0.013320845
000330 59 bf 44 bc 9e da 1d bb eb db 65 3b c7 71 12 3c
       -0.012008511 -0.0024086605 0.0035073708 0.008938259
000340 e2 35 e2 bb cd 73 6b bc ba e5 37 bc a6 e3 7e bc
       -0.006903396 -0.014370871 -0.011224205 -0.015557205
000350 88 53 80 3c 97 a1 38 bc ee 02 d2 bb 19 a3 16 3c
       0.01566483 -0.011268995 -0.0064090407 0.009194159
000360 9a 79 06 bb e8 a1 50 bb f8 99 35 bc 11 41 76 bc
       -0.0020519258 -0.0031834785 -0.011084072 -0.0150301615
000370 0e b9 06 bc a9 63 9f bc 18 f6 ab bb 69 2a 52 bc
       -0.008222831 -0.019456701 -0.0052478425 -0.012827494
000380 e4 60 98 bb 0d f6 6a bb 22 ef 40 bc dd 94 7d bb
       -0.004650222 -0.0035852224 -0.011775764 -0.0038693466
000390 b7 6a 07 bb 00 18 85 bc 0d 30 69 bc 5c fa d4 3b
       -0.0020662972 -0.016246796 -0.014232648 0.0064995717
0003a0 b5 94 3d bb 5b 10 40 bb 7c 4a 49 ba 91 29 d4 bc
       -0.0028927748 -0.0029306624 -0.00076786405 -0.025898727
0003b0 70 dd b6 3b f8 d8 9c bc 57 20 14 39 79 99 42 bc
       0.0055805966 -0.019146428 0.00014126427 -0.011877411
0003c0 16 5f 50 bb fe 1f 0c b8 79 18 87 bb b8 e3 23 bb
       -0.0031794957 -3.3408396e-05 -0.0041227904 -0.0025007557
0003d0 95 87 8f 3a b0 51 0c bc c3 5f de bb b1 86 7c 3b
       0.0010950441 -0.008564398 -0.006786318 0.003853243
0003e0 2c d1 0d ba cd 03 fc 3b 96 ae 26 bc 9e 47 5b bc
       -0.0005409892 0.007690883 -0.0101734605 -0.013383774
0003f0 be 2a ba bb 6a 01 9d bc c8 cf 2b bb 3f 5b 4b bc
       -0.005681365 -0.019165713 -0.0026216377 -0.0124118915

network_body.linear_encoder.seq_layers.0.weight f4 [256, 621]
000000 da 6a a6 3d 4c 3c 97 3c fc 46 d1 3c 20 9e c5 bd
       0.08125849 0.018461369 0.025546543 -0.096493006
000010 13 a5 c5 3c 42 8a a6 bc 49 6e 06 3c 63 9f bc 3d
       0.024126565 -0.020329598 0.008205005 0.09210088
000020 1c 91 60 bc 2d 9c 36 3d cd 8b 26 bd 1c 24 3b bd
       -0.013706472 0.044582535 -0.04066067 -0.045688733
000030 e5 97 6a bd f2 3e 02 3d a1 ad e4 3d 8f 6b d5 bb
       -0.057273764 0.03179831 0.111659296 -0.006513066
000040 22 01 54 bd c3 77 5f bd 4d b1 04 3d 91 f0 24 bd
       -0.051758893 -0.054557573 0.03239565 -0.040268485
000050 b4 de 28 3b c7 bd 68 3d 6f 95 a4 3d 15 db 15 bd
       0.0025767507 0.05682161 0.08036315 -0.036585886
000060 1d 02 1e bd 0e df 2a bd 02 38 de b8 ca 7f 56 bd
       -0.038576234 -0.041716628 -0.00010596217 -0.052367963
000070 a4 db 17 bd 43 a8 ad 3c c2 e2 e1 3c b1 5f 0e bd
       -0.0370747 0.021198398 0.027573947 -0.034759227
000080 ef 2e 85 bd 95 86 05 bd 0c 7b 7b 3d ae cd 90 3d
       -0.065030925 -0.03259905 0.061396644 0.0707048
000090 dc 08 02 bd d4 f4 3c bd 46 b5 3a 3c bf 79 99 bd
       -0.03174673 -0.046131924 0.011395758 -0.07493924
0000a0 03 54 39 bd 31 10 e8 bb ce 9e 98 3d e3 24 b8 3b
       -0.045246135 -0.0070820083 0.074521646 0.0056196316
0000b0 ad a9 a1 bc 8e e6 19 3d fb 1e 78 bc fd c0 79 3d
       -0.019734228 0.03757339 -0.015144105 0.060975064
0000c0 80 e1 15 3c ea 37 63 3e cd 4c 47 3d 48 0c 8d bc
       0.009148002 0.22189298 0.048657227 -0.01721777
0000d0 3a bd 7c 3d 59 fe 95 bd a9 89 bf bd 7b 51 e9 3b
       0.061703898 -0.073239036 -0.093524285 0.007120309
0000e0 ff ed be bb c1 e5 91 3d 68 74 57 bc bb 3c 8b bc
       -0.005826711 0.071239 -0.013150312 -0.016996732
0000f0 5c a7 e0 bc 10 88 b6 bb 01 79 25 bc 2e 93 0e 3d
       -0.027423553 -0.005570419 -0.01009965 0.03480833
000100 bd 3e 1f 3d 57 4a 39 3d 69 94 a2 bb 40 01 d9 bd
       0.03887819 0.04523691 -0.0049615395 -0.105959415
000110 63 d6 17 bd 96 6a fa bc 3a c7 e4 3d c4 02 a9 3d
       -0.03706969 -0.030568402 0.11170812 0.082524806
000120 b1 eb 00 3d 62 0e 0b 3d 4f ea 88 bb c8 86 56 bd
       0.031474773 0.033949263 -0.0041783224 -0.05237463
000130 b1 c5 27 bc 89 1a 9a 3d c2 dc a2 bd 32 5e 1f bd
       -0.010240004 0.075245924 -0.079522625 -0.03890819
000140 82 30 4f bd 19 cb 98 bd 4a b6 c7 bc 06 77 68 bc
       -0.05058337 -0.07460613 -0.024378914 -0.014188534
000150 4f 02 bf 3d 15 df c1 bc d3 09 9f bc f2 de 94 bb
       0.09326612 -0.023665944 -0.019413864 -0.0045431787
000160 50 5e dc bd 42 ff 72 bd a1 28 bb 3c 52 69 75 3d
       -0.10760176 -0.059325464 0.022846522 0.059914894
000170 c1 5b 58 bd 6f 90 fb bb 98 6e 27 bd 78 9c 97 bc
       -0.05282188 -0.00767713 -0.040876955 -0.018507227
000180 62 dd 86 3c 47 2f cf ba 41 ea 03 3e e7 d8 8f bb
       0.016462985 -0.0015806936 0.1288233 -0.0043898704
000190 7b 3e b6 bd 81 b7 27 bc c8 5d 92 bd 7e 1b 14 3c
       -0.08898636 -0.010236622 -0.071467936 0.009039758
0001a0 8d 6c 75 3d 04 ad 4b 3c d7 57 19 bd 63 a6 51 3d
       0.059917975 0.012431387 -0.037437286 0.05118407
0001b0 b0 03 c7 bc 05 8c 19 bd e8 51 2f 3d 3d bb 77 bd
       -0.02429375 -0.03748705 0.04280272 -0.0604813
0001c0 92 a8 ac bc e6 ba d1 3c 3a 28 a2 3b ff e1 1f 3c
       -0.021076474 0.025601815 0.004948643 0.0097584715
0001d0 25 db 2b bd e7 58 c8 bc 05 d7 fc bb 4f 2e dd bd
       -0.04195704 -0.024456454 -0.007716062 -0.10799848
0001e0 c7 08 80 3c f3 02 2f 3b 07 1a 03 bc 4a da 78 bc
       0.015629185 0.0026704639 -0.008001811 -0.015188763
0001f0 79 c4 12 3d 45 9c c9 3c f7 b3 ff 3d 89 48 c3 3d
       0.035831902 0.024610648 0.124854974 0.09535319
000200 0d 52 28 3c 30 6c c0 3c f3 fd f0 bd 5c 5c 1d 3d
       0.010273469 0.023489088 -0.11767187 0.03841816
000210 54 82 92 bb 7f fa fc 3c 6b 5d 4a 3e 83 b1 66 bc
       -0.0044711027 0.030881165 0.19762199 -0.014080408
000220 d1 0e 61 bd 5e 90 9e bd 6c 11 2e 3d 56 6d 17 bd
       -0.05494577 -0.077423796 0.042497084 -0.036969505
000230 5b 38 be 3d b3 8d 8c 3d 46 ea 51 bd 23 48 90 bc
       0.09288093 0.068629645 -0.05124881 -0.017612522
000240 37 4a 1e bc 09 9f f0 3c dd cc 6a 3d 53 a1 12 3d
       -0.009661249 0.029372709 0.05732428 0.035798382
000250 c7 32 52 3d 13 c4 05 bb 89 81 f1 3c cd 07 5c bd
       0.051317956 -0.0020411059 0.029480712 -0.053718377
000260 c2 56 f1 3d 67 0a 1d bd bd 4d 53 3d d8 99 bc 3d
       0.11784126 -0.03834 0.05158781 0.09209031
000270 89 84 18 3d cf 9c 9f 3c da 10 18 bd c6 bb 84 3c
       0.03723577 0.019483952 -0.037125446 0.016202819
000280 6c 89 01 3c da 01 eb 3c 47 9d 92 bc 4b 71 ac 3c
       0.007906299 0.028687406 -0.017897261 0.021050116
000290 a4 4c 2f 3c da bc 2a bc b0 7e 4b 3d c5 56 f4 bb
       0.010699425 -0.010421002 0.049681365 -0.007456633
0002a0 34 6d 5f 3d e5 2b 62 3c 9d f5 ac bd 26 f4 36 bc
       0.054547504 0.013804411 -0.084452845 -0.011166608
0002b0 5a e0 59 bd ef 77 b4 3b f4 e9 09 bd 89 0a 9b bd
       -0.053192474 0.0055074613 -0.03367038 -0.07570369
0002c0 b7 d5 6d 3d 86 27 b0 3c 00 3c 05 bd 32 e8 eb bc
       0.058065142 0.021503221 -0.032527924 -0.028797243
0002d0 bb 86 03 3d a6 b3 43 bd 88 6c 0e 3d 1b 18 2b 3d
       0.03211091 -0.047778748 0.034771472 0.041771036
0002e0 04 17 69 bd cc 56 2d 3d 5d 03 9a bc 43 ad 36 3c
       -0.056906715 0.042319104 -0.018800432 0.011149707
0002f0 64 f8 d1 3c a9 23 3e 3d bf bb 7e 3d 47 d7 17 bd
       0.025631137 0.046420727 0.062190767 -0.03707054
000300 1b fe 2f bd 16 48 6f bd c7 38 27 bd 5b b3 9e 3c
       -0.042966943 -0.058418356 -0.04082563 0.019372633
000310 de 03 48 bd fd c9 04 bc a3 95 1e bd 9e 40 23 3d
       -0.048831813 -0.008104798 -0.038716923 0.039856546
000320 0f 13 d9 bc 38 c7 6e 3d 62 2a 3e bd ec 21 bd 3d
       -0.026498346 0.05829546 -0.04642714 0.09234986
000330 8e be 65 3d 41 f2 52 bd eb ee 87 3c 6d 54 21 3d
       0.05608993 -0.051500563 0.016593417 0.039387155
000340 06 a3 43 bd c8 df 9f bd 2d b4 68 3c 86 af 1c 3d
       -0.047762893 -0.07806355 0.0142031135 0.03825333
000350 28 3c 44 39 ba 94 a5 3a de 80 94 bc 7a d1 94 3d
       0.00018714427 0.0012632825 -0.018127855 0.07266517
000360 d9 bb 19 ba 3b e3 c8 3c 1a 01 5d 3c 81 f8 f7 bc
       -0.00058644783 0.024522414 0.013489032 -0.030269863
000370 f6 3e b6 bb a2 6a 13 bd 54 3f 0b bd c0 60 99 bd
       -0.0055617047 -0.035990365 -0.03399594 -0.07489157
000380 0e 69 66 3b d4 a9 0c 3e 36 fb 8f bd e9 43 98 3c
       0.0035157832 0.1373666 -0.070303366 0.01858707
000390 7f 94 10 3b 46 26 8a 3b 66 ec 79 bc e3 66 94 3d
       0.0022061167 0.0042159883 -0.015254116 0.072461866
0003a0 ec 29 9c 3d 18 f3 78 bd 00 ce 02 bd 2e df 86 bd
       0.076251835 -0.060778707 -0.03193474 -0.06585537
0003b0 78 78 b1 bc a7 3f 6e 3c 13 38 ba 3c 6e 48 1d 3d
       -0.02166389 0.014541543 0.022731816 0.038399152
0003c0 d9 a0 47 3d a3 7e 94 bb c3 f6 8b bc e2 b6 7c 3d
       0.04873738 -0.004531698 -0.017085439 0.06169785
0003d0 03 24 3a bd 88 e6 8c 3c ed 2b da bc 93 df 8e bd
       -0.0454445 0.01719977 -0.026632274 -0.06976237
0003e0 ed 07 8b 3c 70 36 87 bc 3e eb 86 bc e6 6a b0 3c
       0.016971553 -0.01650545 -0.016469594 0.021535348
0003f0 6b c0 c7 3d ec 01 06 3e bd e2 71 bd 20 a4 ab 3d
       0.09753498 0.1308667 -0.059054125 0.08380914

network_body.linear_encoder.seq_layers.2.bias f4 [256]
000000 17 5c e6 3b 1f f5 b4 bc 26 88 0b 3d d6 a8 24 bc
       0.007030021 -0.02208954 0.03406539 -0.010050019
000010 fb 15 0c bd 5e e9 81 3c 13 6a fb 3b 69 af ab bc
       -0.03420065 0.015858348 0.007672557 -0.020957666
000020 b9 e7 8c bc 8f c3 61 3b 6d 86 a5 bb 97 de db ba
       -0.017200338 0.0034448837 -0.005051425 -0.0016774711
000030 79 df b8 3b ff 54 56 3c a1 46 48 3c 74 53 36 3c
       0.0056418744 0.013081788 0.0122238705 0.011128295
000040 74 97 20 3c b0 c3 8d 3b 71 cd 32 bc 75 d5 b1 bb
       0.009801734 0.0043263063 -0.010913239 -0.0054270574
000050 68 8d bd bb bc 17 88 bc a5 0b b6 bb 73 fd 61 bc
       -0.005784679 -0.01661288 -0.0055555874 -0.013793337
000060 1a a4 b5 3b 54 77 f7 3b 23 3d 75 bc 84 67 77 bc
       0.005543244 0.007552067 -0.014968189 -0.015100364
000070 06 90 e0 3c 40 06 20 3d 23 9e e4 bb 67 24 33 bc
       0.027412426 0.03906846 -0.006976859 -0.010933972
000080 73 85 8d bc 87 d6 41 bc c3 7c 0e bc ab 2d 27 bc
       -0.017275548 -0.011830932 -0.008696738 -0.010203759
000090 9a 21 77 bc 6f eb ac bc 55 f5 d3 bc 13 5f 26 bc
       -0.015083695 -0.021108357 -0.02587382 -0.010154503
0000a0 94 0c 8d b8 d2 36 6b bc d8 f5 6e bc 6c c9 bf bb
       -6.725747e-05 -0.014356332 -0.014584981 -0.005852869
0000b0 25 a5 13 bc e8 19 e7 bb 50 3e 9f bc 6a 3e 26 bc
       -0.0090115415 -0.007052649 -0.019438893 -0.010146717
0000c0 6c 1f b8 3c 41 80 41 3a a4 de 87 bb ec 44 d2 bc
       0.02247592 0.0007381477 -0.004146414 -0.02566763
0000d0 09 19 99 bb d4 70 48 bc 5f b8 d2 bb 81 55 19 bd
       -0.004672174 -0.012233932 -0.00643067 -0.03743506
0000e0 57 f2 a0 bc f8 a9 45 3c 69 9d 2f bb cc 50 14 3b
       -0.019646807 0.0120644495 -0.0026796705 0.0022631167
0000f0 df 33 9f 3a dd 93 70 bc 4a 8c a2 bb 69 d8 44 bc
       0.0012146196 -0.014683691 -0.0049605714 -0.012014487
000100 f3 50 12 bc 30 ad 8d bc 98 34 a8 3b dc 09 1c bc
       -0.008930433 -0.017294496 0.005133223 -0.009523835
000110 34 c5 95 ba e4 15 09 bd 4a 37 20 3c 36 33 a0 3c
       -0.0011426569 -0.033468142 0.009778807 0.01955567
000120 68 98 d5 bc c0 85 97 bc f7 ad d5 3c 87 99 23 3b
       -0.02607365 -0.018496394 0.02608393 0.0024963336
000130 26 72 e3 bb c0 36 9b bc fc 13 2d bc 8d b6 9a bc
       -0.006941098 -0.018947005 -0.010563847 -0.018885875
000140 87 f0 aa bc 4b 00 0f bd da 31 88 bc 5b b7 5b 3b
       -0.020866646 -0.03491239 -0.016625334 0.0033526036
000150 a8 05 d7 ba fd b3 ab bb fa 7c b1 bc 15 34 b4 bc
       -0.0016404884 -0.005239962 -0.021666039 -0.02199749
000160 88 89 81 3b 08 e7 57 3c 8c 2c 5b bc 25 7c 28 bc
       0.0039531626 0.013177641 -0.01337732 -0.010283505
000170 37 d5 43 bd fc 5b 81 3c 30 5d 3a bb 9d d3 f4 ba
       -0.04781076 0.015790932 -0.0028436892 -0.0018678788
000180 f4 da 5a bc 74 4f 69 3c ce 39 96 bc 06 13 7c 3a
       -0.013357867 0.0142401345 -0.01833811 0.0009615872
000190 21 db 3c bc 1a 98 b7 bc b9 17 25 bc b1 5e ff bb
       -0.011526854 -0.022411395 -0.010076457 -0.0077932705
0001a0 54 97 c0 bc 9e e0 c8 b9 a1 62 9d 3b 58 f4 d0 bb
       -0.023509659 -0.00038314326 0.0048030172 -0.0063767843
0001b0 c3 23 93 3a 5d 52 58 bc 48 1e 04 bd be 63 12 3b
       0.0011225868 -0.013203231 -0.03225544 0.0022337283
0001c0 11 90 ef bc 5a 12 3e 3c 5c b2 a4 bc a3 43 0b bd
       -0.0292435 0.011601055 -0.02010458 -0.03400005
0001d0 11 9e 46 bc 56 0a 5c bc 65 61 87 bc 7e 06 13 3b
       -0.012122647 -0.013430199 -0.016525934 0.002243429
0001e0 84 df 92 bb 38 16 12 bd 68 8d 95 bb ee 92 8c 3c
       -0.0044822115 -0.03566572 -0.004563976 0.017159905
0001f0 78 c5 c1 bc 71 5a 29 bc 64 de 35 3a a0 f2 dd bb
       -0.02365373 -0.010336504 0.0006937741 -0.006773308
000200 54 9e 7a ba 4c 09 15 bc da a1 2f ba 3e a7 49 bc
       -0.0009560336 -0.009096455 -0.0006699838 -0.01230794
000210 58 81 5a 3c 49 a7 92 bb 0b 8c 59 bc dd 40 89 3c
       0.013336502 -0.0044755084 -0.013278018 0.016754562
000220 b2 bf 11 bb 82 e4 3c 3b 50 61 33 3b dd 42 69 bb
       -0.0022239503 0.0028822725 0.0027371235 -0.0035592832
000230 37 a4 8a bc 83 f4 58 bc c8 2f ab bc cd a3 05 bd
       -0.016924007 -0.01324189 -0.020896807 -0.032626916
000240 40 7e d8 bb 16 c3 85 3c 05 ff a9 bc 78 3e bb bc
       -0.006606847 0.016328376 -0.020751486 -0.022856936
000250 fc 1b 8c 3b 3c 5a b0 bc b6 bd 98 bc 68 14 7a 3a
       0.004275797 -0.021527402 -0.018645149 0.0009539784
000260 37 1d 86 bc 8c 6f 45 bc b3 32 5a 3c 29 2f 75 bc
       -0.016371353 -0.012050521 0.013317752 -0.014964857
000270 64 c4 99 bc ab d3 01 bd ae 32 23 bc 93 a0 61 bc
       -0.018770404 -0.031696003 -0.009960813 -0.013771194
000280 ef 66 3b bb c4 7f 8f bc 5b 9f 8a bc 8f fd 50 bc
       -0.0028595289 -0.017516978 -0.01692169 -0.012755766
000290 61 9a a7 3b c5 58 8e bc b6 f4 66 3b 89 38 08 3b
       0.005114839 -0.017376313 0.0035241074 0.002078565
0002a0 33 66 dd bc d0 6f b0 bc c9 e8 ae ba d7 02 9b bc
       -0.027026271 -0.021537691 -0.0013344522 -0.018922253
0002b0 2e 04 7c bc af 1f bb bb 45 dd 2e bd 4a 69 13 3c
       -0.015381856 -0.005710564 -0.042691488 0.008997271
0002c0 2b 21 77 bc f2 4b 82 bc bb 01 86 bc 76 a2 a7 bc
       -0.015083591 -0.015905354 -0.016358247 -0.02046321
0002d0 00 3e 04 3b 20 a1 0a bc fa 25 c8 3b fb 7c cc bb
       0.0020178556 -0.008461267 0.006108043 -0.006240485
0002e0 56 57 2f bb 19 82 6f 39 34 96 d4 bc 9e 08 5b bc
       -0.0026754937 0.00022841281 -0.025950529 -0.013368754
0002f0 71 44 44 3b 2f 99 16 3c b7 78 b4 bc 64 c7 57 bb
       0.002994802 0.009191795 -0.022030218 -0.0032925243
000300 24 8b 99 bc 4a 17 06 bc ff 25 48 bc ae e3 f3 bb
       -0.018743105 -0.0081842635 -0.01221609 -0.007442913
000310 08 59 98 bc 1c cc 42 bb d1 be d3 bb 5e 22 4a bc
       -0.01859714 -0.002972371 -0.006461956 -0.012337295
000320 ee b0 60 bc ef 5a 96 bc 57 46 8e 3c 4a d4 a7 3c
       -0.013714058 -0.018353907 0.017367525 0.02048697
000330 1b a9 ba 3a c6 8e 08 bc c1 21 aa bc 25 3a c0 bb
       0.0014241071 -0.008334821 -0.020768048 -0.0058663064
000340 11 d7 5a bb 14 ec 3c ba 85 e5 32 bb 23 f3 4b bc
       -0.003339235 -0.0007206809 -0.0027297449 -0.012448105
000350 c4 70 2d bc 2d 57 2d b9 7f 48 67 bc 54 be d3 ba
       -0.010585967 -0.00016531041 -0.0141164055 -0.0016154745
000360 77 83 8a bc b4 40 cf bc 69 09 9f 3b b8 d9 76 bb
       -0.01690839 -0.025299408 0.0048534167 -0.0037666392
000370 dd d6 d3 3c 0f ef 5c 3c d1 d0 a0 bb 52 f0 1f bd
       0.02585929 0.01348473 -0.0049077054 -0.039047547
000380 1e d8 dc bb d8 f3 61 3b 5a b2 9b 3b a7 ed 58 3b
       -0.0067396304 0.0034477618 0.004751486 0.0033100636
000390 80 87 3e bc 00 31 ad bc 94 30 10 bc a0 c4 86 bc
       -0.011628985 -0.02114153 -0.008800644 -0.01645118
0003a0 6f 29 2d bc ea e1 27 bc f5 90 a8 bb fb 73 97 bb
       -0.010568961 -0.010246733 -0.0051442333 -0.0046219802
0003b0 5a 3d 0f bc e7 aa b9 bc 21 75 0e bd 4b 0c 07 3c
       -0.008742655 -0.0226645 -0.03477967 0.008242677
0003c0 4c de 8e 3c 2c 82 d0 bc cb 1e 3f 3c 99 73 1b bc
       0.017439984 -0.025452696 0.011665056 -0.00948801
0003d0 ea dd b6 bb 60 f8 29 bb 82 65 da ba 5e d5 59 bc
       -0.0055806534 -0.0025935397 -0.0016662332 -0.0132955
0003e0 a2 89 08 bc 62 11 b3 39 ec 2c c3 bc 5b 88 cc 3b
       -0.0083335955 0.00034154492 -0.023825131 0.006241841
0003f0 e5 38 83 bc b2 17 a3 bc 21 2f 21 bc 5d 00 fd bc
       -0.01601834 -0.01990876 -0.009837897 -0.030883962

network_body.linear_encoder.seq_layers.2.weight f4 [256, 256]
000000 2d d9 63 bc 5c d3 90 bc ca 07 68 bb 16 94 2e bc
       -0.013906759 -0.017678909 -0.0035405033 -0.010655424
000010 44 bc 32 bd 7c ae cf bd ea 1f d0 bd 97 21 bb bc
       -0.043636575 -0.10140702 -0.10162337 -0.022843165
000020 33 52 12 bd b3 42 96 bd 21 a9 86 bd 91 fe 7c 3d
       -0.035722923 -0.073369406 -0.065752275 0.06176621
000030 d9 c5 3d bd 66 d8 e9 bc b5 29 e6 bc 42 c3 57 bc
       -0.04633126 -0.02854557 -0.02809606 -0.013169112
000040 b0 f6 f7 3b db 09 7b bd cb be 0c bc 90 c7 1a 3c
       0.0075672492 -0.061288696 -0.00859041 0.0094469935
000050 4c fd ad ba 4f f0 a4 3c 8f 9c ff 3c 57 9a 65 bd
       -0.0013274341 0.02013412 0.031202583 -0.056055393
000060 76 08 58 3d 81 6c 54 3c 02 74 b3 bc e7 6a 6f 3d
       0.052742444 0.0129653225 -0.021905903 0.05845156
000070 a2 9f 76 3d 10 e4 52 bc 77 05 8e 3d 0c f7 92 bb
       0.06021083 -0.012871757 0.06934636 -0.0044850167
000080 a1 d6 89 bd 66 05 85 bc aa 3d c4 3c 85 23 12 3d
       -0.0673039 -0.016237926 0.023955185 0.035678405
000090 b6 13 03 bd 41 71 1f be a2 23 1e 3b e8 f6 2f 3d
       -0.03200122 -0.15570547 0.0024130126 0.042960078
0000a0 da e5 12 bd c8 15 0e 3d 99 cd 4f 3b 86 7f 8f bd
       -0.035863735 0.03468874 0.003170824 -0.07006745
0000b0 41 67 e8 3d 18 aa e9 3c d2 8a 9f 3c 69 0f a1 3c
       0.11347819 0.02852349 0.019475374 0.019660668
0000c0 57 5e 3a bc 47 80 97 3d f1 b1 b8 bb 3b 62 cb bc
       -0.011375031 0.07397514 -0.0056364466 -0.024827113
0000d0 56 76 c0 3d c2 b2 1c 3d f5 84 af bd eb e6 f5 bd
       0.09397571 0.038256414 -0.085702814 -0.12006935
0000e0 88 b0 1d 3d 12 48 62 bd ba a2 a6 3b 8b cc 85 bd
       0.03849843 -0.055244513 0.0050853165 -0.06533154
0000f0 51 03 53 bd ff 41 3d 3b 0a 0d bd 3c a2 a2 90 bc
       -0.051516835 0.0028878448 0.023077507 -0.017655674
000100 07 0d 60 bd 07 5b 98 3d cf 22 16 3d 81 4c f0 bc
       -0.054699924 0.07439237 0.03665429 -0.029333355
000110 e3 bb 69 3c 4b b3 60 bc 0a 51 d2 bd 2b e0 61 3c
       0.014265987 -0.013714622 -0.10269363 0.013786356
000120 1a 85 7d bd 7a e3 82 3b 3d 5f ad 3c fb d2 6f 3d
       -0.061894514 0.0039944025 0.021163577 0.058550816
000130 3b 35 69 bc 4e 9f 36 bd 96 06 8d bd 5a 89 d5 bb
       -0.014233883 -0.04458552 -0.06886022 -0.0065166177
000140 ab 85 dd bc a9 66 01 bd c6 3f 34 bd 23 11 a2 bc
       -0.027041277 -0.031592045 -0.04400613 -0.019783562
000150 79 35 24 bb 83 57 29 bc ba 2d f0 3d 56 eb 46 3c
       -0.0025056286 -0.010335806 0.11727472 0.012141069
000160 c1 25 0f bd 71 11 2a be 8d ff 4a 3d d9 11 54 bb
       -0.034948114 -0.16608216 0.04956012 -0.003235927
000170 7a 52 10 3d 37 a5 15 bd ef 45 38 bd ec a1 49 bd
       0.035234906 -0.036534514 -0.04498857 -0.049226686
000180 15 62 d1 3c 82 70 32 bb e0 ca 0e 3b b5 a5 ab 3d
       0.025559464 -0.0027227704 0.0021788403 0.083812155
000190 ac 68 b2 bd ad 11 3e bd 59 ba 66 3d 0c 0a 8c bd
       -0.08711371 -0.046403576 0.05633006 -0.06837854
0001a0 60 12 68 bd a9 36 a8 3d 55 f2 cb 3c f5 56 42 bc
       -0.05665815 0.082135506 0.024895826 -0.0118615525
0001b0 99 67 2b be e8 de 04 be d7 54 13 3d 7e 1b 99 3d
       -0.16738738 -0.12975657 0.03596958 0.07475947
0001c0 24 69 18 bd e4 a7 95 3d 4a 63 9d 3d d7 61 af 3d
       -0.037209645 0.07307413 0.076849535 0.08563583
0001d0 09 a5 52 3d 20 08 16 3c 92 f3 bc 3d 18 dd 0f be
       0.05142692 0.009157211 0.09226145 -0.14049184
0001e0 bb 19 8c 3d 61 f1 08 bc 28 e7 c2 bd 8b 53 b3 3d
       0.06840845 -0.0083583305 -0.09516746 0.08756169
0001f0 3b ce 2d 3c ed 43 e8 3c dc 66 c5 bc c3 cc 94 bc
       0.010608251 0.028352702 -0.024096899 -0.018164044
000200 5a ef 6f ba d1 00 fc 3d c1 f2 53 bb 7a fd b1 bd
       -0.00091527926 0.12304843 -0.0032340738 -0.08690925
000210 49 ea 79 3d 2e 81 51 ba 5f c4 d3 bc c9 80 08 bd
       0.061014447 -0.00079919666 -0.025850473 -0.033325944
000220 70 74 3f ba 7b 15 9b 3d 30 08 99 3d d0 59 d0 3d
       -0.00073034223 0.075724564 0.07472265 0.101733804
000230 88 9a ad 3d 88 39 91 3c 9b 3a 33 3d 82 7a 16 3d
       0.0847674 0.017727628 0.043757062 0.036737926
000240 30 b6 89 bb c2 cf ee bd 79 58 6c bc d5 9e b1 bb
       -0.0042026266 -0.116607204 -0.01442539 -0.0054205456
000250 3d 3e de bc 8b 2a 7a 3d fd b0 a5 bd 00 12 83 bc
       -0.027129287 0.06107573 -0.080903985 -0.015999794
000260 09 b9 11 3d fb d4 41 bd 48 c4 a5 3c 9c ad e0 3d
       0.035576854 -0.047322255 0.020235196 0.10970613
000270 83 3d d2 bd 2e 06 e4 bc 10 ac b5 3d 70 63 6a bd
       -0.10265639 -0.027834978 0.08870709 -0.057223737
000280 db b0 33 bd 96 a9 0a bd c8 75 a6 bd dd cf d4 bd
       -0.043869834 -0.033853136 -0.08127934 -0.10391209
000290 39 7e 11 3d f6 81 15 bc 57 3e 88 3d b5 a3 e4 bd
       0.035520766 -0.009125223 0.066525154 -0.11164037
0002a0 ed 28 4f 3d dc bf 5b bd ed bb 0c 3d a1 62 b6 3c
       0.05057614 -0.05364977 0.034358907 0.022263827
0002b0 32 de 00 bd 59 07 11 bd ed ec 04 3e 2a 5d da bd
       -0.031461902 -0.035407398 0.12981005 -0.10662301
0002c0 fb 7c e3 bc 67 9f 15 3d 16 40 51 3d 12 55 93 3b
       -0.027769556 0.03652897 0.051086508 0.004496225
0002d0 ab 71 9e 3b c0 af 50 bd e3 08 5f bd c2 68 14 bd
       0.0048353276 -0.05094886 -0.054451834 -0.036232717
0002e0 82 98 69 3c 2a c8 58 bd 85 a9 b7 bd b0 ae 67 3c
       0.014257552 -0.052925266 -0.0896788 0.01414077
0002f0 c4 23 b0 3c 14 2b 9a 3d 5d 03 07 3e 26 e1 a3 bd
       0.02150143 0.07527748 0.13184877 -0.08001928
000300 98 9c a8 3c 02 b8 67 bd 86 f3 88 3d 6b 9b 94 bd
       0.020582482 -0.056571968 0.066870734 -0.07256206
000310 44 de 92 3d b4 4b b1 3d 06 96 11 3e c1 ab 2a be
       0.071713 0.08657017 0.14217386 -0.16667081
000320 19 b0 68 bd ea cf 7c 3d 0d 9f 7e 3d f7 6b d0 3d
       -0.056808565 0.06172172 0.0621634 0.10176843
000330 42 98 95 bd 2e 31 44 bd 4d 18 a2 bc fe 7a 8a bc
       -0.073044315 -0.047898464 -0.019786978 -0.01690435
000340 64 dc dc 3c 1b 48 14 be 85 6a 44 3d 35 51 bc bd
       0.02696056 -0.14480631 0.047953147 -0.091951765
000350 5c b2 02 bd b3 c9 2a bd fd 01 78 bd e8 b7 f0 bc
       -0.031908378 -0.04169626 -0.06054877 -0.029384568
000360 ea 81 35 bd 8f 6e 00 3d 61 ec 1d bc d5 2e 23 bd
       -0.04431335 0.031355437 -0.009638877 -0.039839584
000370 bf f1 1e 3d 8e 7a d2 bc 08 fd 94 bd 68 cc a5 bd
       0.038804766 -0.025693204 -0.072748244 -0.08095628
000380 64 ed 36 bd e8 09 56 bd 30 91 29 bd 53 5a 68 3d
       -0.044659987 -0.05225554 -0.041398227 0.056726765
000390 3d 69 a1 bc d2 1b 56 bd c1 b2 e7 bd 9c e4 7d bd
       -0.019703502 -0.052272625 -0.113133915 -0.061985597
0003a0 60 f2 d4 3d 55 26 32 3e f9 b7 37 be 60 10 99 3c
       0.10397792 0.17397435 -0.17941274 0.018684566
0003b0 63 3d fa bd 20 01 a2 3c a5 7d d9 bd 14 bc cf bc
       -0.1221874 0.019775927 -0.10619668 -0.025358237
0003c0 a8 aa 7f bd 6c ea e1 3c 00 b5 dd 3d 65 ca 8a 3d
       -0.06241861 0.027577601 0.10825539 0.06776885
0003d0 51 6a c4 bc 01 42 bb bd 29 21 7a 3d e8 54 17 3d
       -0.023976477 -0.091434486 0.06106678 0.036946207
0003e0 5a b0 b4 3d 67 7e 80 bd 79 33 bf 3d 00 ff a0 bc
       0.08822699 -0.06274109 0.093359895 -0.019652843
0003f0 76 19 55 bd 4b 43 6e 3c c2 87 00 be 90 d6 fe bd
       -0.052026235 0.014542411 -0.12551787 -0.12443268
